Python 3.6.7 (v3.6.7:6ec5cf24b7, Oct 20 2018, 13:35:33) [MSC v.1900 64 bit (AMD64)] on win32
Type "help", "copyright", "credits" or "license()" for more information.
>>> 
======== RESTART: A:\Arima\PROJECTS\CNN\New folder\M_C_F_D_P._2py.py ========
Model: "sequential"
_________________________________________________________________
Layer (type)                 Output Shape              Param #   
=================================================================
conv2d (Conv2D)              (None, 148, 148, 32)      896       
_________________________________________________________________
max_pooling2d (MaxPooling2D) (None, 74, 74, 32)        0         
_________________________________________________________________
conv2d_1 (Conv2D)            (None, 72, 72, 64)        18496     
_________________________________________________________________
max_pooling2d_1 (MaxPooling2 (None, 36, 36, 64)        0         
_________________________________________________________________
conv2d_2 (Conv2D)            (None, 34, 34, 64)        36928     
_________________________________________________________________
max_pooling2d_2 (MaxPooling2 (None, 17, 17, 64)        0         
_________________________________________________________________
conv2d_3 (Conv2D)            (None, 15, 15, 32)        18464     
_________________________________________________________________
max_pooling2d_3 (MaxPooling2 (None, 7, 7, 32)          0         
_________________________________________________________________
conv2d_4 (Conv2D)            (None, 5, 5, 32)          9248      
_________________________________________________________________
max_pooling2d_4 (MaxPooling2 (None, 2, 2, 32)          0         
_________________________________________________________________
flatten (Flatten)            (None, 128)               0         
_________________________________________________________________
dense (Dense)                (None, 512)               66048     
_________________________________________________________________
dropout (Dropout)            (None, 512)               0         
_________________________________________________________________
dense_1 (Dense)              (None, 2)                 1026      
=================================================================
Total params: 151,106
Trainable params: 151,106
Non-trainable params: 0
_________________________________________________________________
(TensorSpec(shape=(None, 150, 150, 3), dtype=tf.float32, name=None), TensorSpec(shape=(None, 2), dtype=tf.float32, name=None))
Found 2454 images belonging to 2 classes.
  1/100 [..
…
